kodiak.pth (torch, 396906 bytes, 10 tensors)

conv1.weight f4 [16, 1, 3, 3]
0.16256504 0.08998456 -0.3143695 0.08577715 0.31560096 0.5115332 -0.31720486 -0.090452544
-0.21196072 -0.2336222 -0.19311905 0.2935502 -0.16204101 -0.030893773 -0.25326583 -0.15770175
-0.21480136 0.199366 -0.15513048 0.36656347 0.26870248 0.1508604 0.21796845 -0.0020092365
0.19249214 0.26403898 -0.09225834 -0.18844141 -0.16478473 -0.08443985 -0.11001114 0.030492295
-0.28268406 0.10032437 -0.073798835 0.031691883 -0.15418693 0.40596473 0.2616792 -0.31404117
-0.29189515 0.40513173 0.04727746 -0.3417983 -0.30906427 0.25961214 0.27211142 -0.41686273
-0.22603261 0.49429473 -0.25615576 -0.0853047 0.28213546 0.3603672 0.3150631 0.3418208
-0.10795638 -0.07891126 0.18154249 -0.49971 0.33862358 0.34706295 -0.0060659274 -0.3323033
-0.32678756 -0.3044796 0.29070836 -0.07896766 -0.21126458 -0.18130782 0.3121207 -0.21390705
-0.11586293 0.17556582 0.5399911 0.33080477 0.29239607 -0.18727086 -0.2534256 -0.43204468
-0.35841817 -0.10961977 -0.20850313 -0.27466682 -0.2642092 -0.21040022 0.10564107 -0.18062764
0.12079352 -0.14521767 -0.40898085 -0.5073151 0.020087013 0.23277308 -0.03433285 0.19496454
0.45167175 0.3939443 -0.12806979 0.07699686 0.222672 0.43790442 0.1220621 -0.15231538
0.12554023 -0.32105532 -0.503069 0.0383612 0.041861236 -0.03620057 -0.34053218 0.206841
-0.016976174 0.3631761 0.19824187 0.06480196 0.091744564 -0.25290868 -0.25590545 -0.25225767
-0.35438028 -0.17316686 -0.030849444 0.59887147 0.36503768 0.28125787 -0.35142133 -0.24321674
0.43605852 -0.15582384 0.19853476 0.49607468 -0.21757036 0.36369222 -0.14668743 0.17089187
0.05235327 -0.39386743 0.20799369 -0.4291298 -0.37741098 0.4972188 0.31511995 0.33728015
00000000: 7377 263e d349 b83d 0af5 a0be eeab af3d
00000010: 7396 a13e d7f3 023f ad68 a2be 2f3f b9bd
00000020: 3b0c 59be a83a 6fbe 00c1 45be 364c 963e
00000030: 14ee 25be f014 fdbc 0fac 81be 917c 21be
00000040: e3f4 5bbe 9a26 4c3e 86da 1ebe 35ae bb3e
00000050: 5f93 893e 267b 1a3e 1f33 5f3e 65ad 03bb
00000060: a91c 453e 1e30 873e f1f1 bcbd c9f6 40be
00000070: 54bd 28be cdee acbd 854d e1bd faca f93c
00000080: f7bb 90be dd76 cd3d d823 97bd 59cf 013d
00000090: 2ee3 1dbe 9cda cf3e d1fa 853e 01ca a0be
000000a0: 4873 95be 6d6d cf3e 03a6 413d 3000 afbe
000000b0: ac3d 9ebe e2eb 843e 3052 8b3e 086f d5be
000000c0: 1875 67be 3314 fd3e d926 83be 3bb4 aebd
000000d0: 0f74 903e 0d82 b83e f34f a13e 2303 af3e
000000e0: 3c18 ddbd 3a9c a1bd 46e6 393e fdd9 ffbe
000000f0: 1260 ad3e 3cb2 b13e b0c4 c6bb a823 aabe
00000100: b350 a7be c0e4 9bbe bad7 943e ccb9 a1bd
00000110: be55 58be c2a8 39be 49ce 9f3e 730a 5bbe
00000120: 8b49 edbd 87c7 333e db3c 0a3f 3e5f a93e
00000130: f0b4 953e efc3 3fbe 00c1 81be f634 ddbe
00000140: 9682 b7be 5480 e0bd d881 55be 21a1 8cbe
00000150: 6e46 87be 2873 57be 585a d83d 74f6 38be
00000160: 9862 f73d f1b3 14be f065 d1be 67df 01bf
00000170: 858d a43c 115c 6e3e 9aa0 0cbd c9a4 473e
00000180: 8541 e73e 11b3 c93e ba24 03be 88b0 9d3d
00000190: 2104 643e 0235 e03e b2fb f93d 90f8 1bbe
000001a0: 9e8d 003e 5d61 a4be 21c9 00bf a220 1d3d
000001b0: b076 2b3d 0d47 14bd 3c5a aebe 21ce 533e
000001c0: 9e11 8bbc 38f2 b93e ebff 4a3e e4b6 843d
000001d0: 93e4 bb3d 3f7d 81be 0a06 83be eb27 81be
000001e0: 5571 b5be a752 31be f9b7 fcbc a44f 193f
000001f0: 38e6 ba3e 0801 903e 7fed b3be cf0d 79be
00000200: 1043 df3e 4990 1fbe b24c 4b3e 80fd fd3e
00000210: c4ca 5ebe de35 ba3e 3b35 16be 47fe 2e3e
00000220: 6270 563d fea8 c9be 4cfc 543e e7b6 dbbe
00000230: 033c c1be 7693 fe3e 6757 a13e fcaf ac3e

conv1.bias f4 [16]
0.1935232 -0.26822448 0.13716072 -0.26445478 0.05042058 -0.053439416 -0.15875617 -0.22006352
-0.068419054 0.16377452 0.15207824 -0.07134673 -0.15271278 0.010717503 0.32257706 -0.21477535
00000000: f22a 463e b854 89be dc73 0c3e 9e66 87be
00000010: cf85 4e3d 4ae3 5abd fa90 22be 5558 61be
00000020: 4a1f 8cbd 82b4 273e 66ba 1b3e 3c1e 92bd
00000030: bd60 1cbe 7798 2f3c d228 a53e 12ee 5bbe

conv2.weight f4 [32, 16, 3, 3]
-0.012188255 0.0045731426 0.060049202 0.039600514 -0.020674473 0.15035972 0.030524587 0.02152656
-0.063108906 -0.04327203 -0.10515374 -0.19436124 -0.08803539 -0.099915296 -0.10987989 0.04582857
0.012451635 -0.06672225 -0.037425358 -0.03810004 -0.01250779 -0.03719553 0.037247535 -0.09734138
-0.044422552 -0.029904405 -0.06164376 -0.06335428 -0.052710038 -0.045752786 -0.036752783 -0.05513422
0.011525024 0.11243882 0.08143967 0.021301782 -0.107254006 -0.05482456 -0.056294464 0.04731007
0.095538735 -0.051267296 0.04625089 -0.0037883585 0.057927646 -0.0018053558 0.088594355 0.03475348
-0.0723447 -0.11165507 -0.056565214 -0.03562198 0.09193145 -0.0119643705 -0.026468627 -0.091441125
-0.026340421 -0.01624866 -0.018427417 -0.07152444 0.050398 -0.16936529 -0.029575428 0.03660742
-0.12010114 -0.0001672814 -0.03425533 -0.05451261 -0.06058526 0.05203977 0.004118716 0.07166591
-0.0070477263 0.05515438 0.20408022 0.093536995 0.24880756 0.09571965 0.05312222 -0.048933253
-0.0021429567 -0.09414364 -0.10507521 -0.08973985 -0.059317768 -0.07109168 0.020631317 0.036101047
0.07605683 0.03152662 0.13143627 0.052370246 0.16412479 0.06898388 0.024215372 -0.03356397
0.039448105 0.029213762 0.16256979 -0.11965128 -0.10121727 0.06529351 0.15563971 0.18331987
0.07066669 0.14667496 0.07839722 0.008374224 0.121791914 0.0056974054 0.009206481 0.10819862
-0.021993624 -0.0070563015 -0.11234567 -0.097475044 -0.20043612 0.06895554 0.10752104 0.05566385
0.024424385 0.0007608706 0.024484426 0.0067451927 -0.009507955 0.08421066 -0.060811862 0.066710584
0.12666301 0.02431468 0.030474072 -0.029974835 -0.07516407 -0.10822317 0.116155624 0.18966793
0.045275822 0.016206369 0.060510244 -0.06405502 -0.051983133 0.1292853 0.0338899 -0.090797655
-0.07174985 -0.019184273 -0.019799843 -0.013016547 -0.03722336 -0.004742969 0.10491335 -0.016046848
-0.03666226 0.09900638 -0.049640182 -0.0040475186 -0.018166408 -0.001493039 -0.06536009 -0.11515702
-0.07653969 0.0018645044 -0.17242996 0.04097448 0.019248378 -0.048827257 0.068101585 0.10164997
0.08459136 0.14612709 0.06832299 0.083743766 -0.116705425 -0.09681916 -0.006774109 -0.039480012
-0.028027039 -0.05637364 0.022500327 -0.092939064 0.0027325337 -0.024728239 4.7546055e-05 -0.06278775
-0.1435058 -0.13036497 -0.10130052 -0.09759006 -0.050418146 -0.09203679 0.08523044 0.13417701
0.06466331 0.034832805 0.080255166 0.058393594 -0.031354226 -0.007033675 -0.13201874 0.046403755
0.22033116 -0.14378363 0.019269878 0.08399889 0.012449989 0.10473108 0.0031970246 0.021255627
0.0032431828 0.018425554 0.055700265 -0.14426225 -0.08604641 -0.050982285 -0.02047589 -0.10245176
-0.00659098 -0.16170914 -0.19161972 -0.17008495 -0.26700988 0.02125944 0.09091869 0.09986648
0.10654838 0.015811775 -0.016189665 -0.038802963 -0.069552444 -0.061255813 0.015128054 -0.13787383
-0.117997766 0.033321347 -0.0003233443 -0.09631185 0.016013907 0.26472798 0.098253965 0.06896278
0.13976398 -0.124246724 -0.16946825 0.18280198 0.034444287 -0.23778252 -0.13476995 -0.17802753
-0.21497113 0.16085726 0.020631006 0.06827596 -0.09712276 -0.041260492 -0.07491164 0.20284854
00000000: 3fb1 47bc 4dda 953b 27f6 753d 2634 223d
00000010: 835d a9bc e6f7 193e b30e fa3c 7858 b03c
00000020: 3e3f 81bd 033e 31bd d85a d7bd a206 47be
00000030: e64b b4bd 64a0 ccbd b508 e1bd bdb6 3b3d
00000040: f101 4c3c ada5 88bd 554b 19bd ca0e 1cbd
00000050: 79ed 4cbc 575a 18bd df90 183d eb5a c7bd
00000060: 6cf4 35bd 15fa f4bc 2b7e 7cbd e4bf 81bd
00000070: 7be6 57bd 4667 3bbd 168a 16bd 6bd4 61bd
00000080: 74d3 3c3c 5346 e63d d7c9 a63d 1381 ae3c
00000090: fda7 dbbd b88f 60bd 0695 66bd 34c8 413d
000000a0: d0a9 c33d a8fd 51bd 9371 3d3d 1c46 78bb
000000b0: 8a45 6d3d b0a1 ecba f570 b53d aa59 0e3d
000000c0: 7529 94bd 6aab e4bd edb0 67bd 5ae8 11bd
000000d0: 8e46 bc3d 3506 44bc bcd4 d8bc 7c45 bbbd
000000e0: dec7 d7bc e91b 85bc 18f5 96bc 687b 92bd
000000f0: 226e 4e3d 186e 2dbe 2b48 f2bc a9f1 153d
00000100: 96f7 f5bd 4268 2fb9 514f 0cbd 9d48 5fbd
00000110: 4028 78bd a727 553d 4bf6 863b 94c5 923d
00000120: 9df0 e6bb 8fe9 613d 68fa 503e 5390 bf3d
00000130: 69c7 7e3e aa08 c43d af96 593d 3c6e 48bd
00000140: d970 0cbb 61ce c0bd ac31 d7bd 87c9 b7bd
00000150: 30f7 72bd 8498 91bd 0203 a93c b1de 133d
00000160: afc3 9b3d 0f22 013d 3b97 063e 2f82 563d
00000170: 5410 283e 6c47 8d3d 515f c63c 607a 09bd
00000180: 5694 213d b351 ef3c b278 263e bb0b f5bd
00000190: 004b cfbd 9bb8 853d 0460 1f3e 34b8 3b3e
000001a0: b3b9 903d f631 163e b98e a03d 0b34 093c
000001b0: 0a6e f93d 4db1 ba3b c8d6 163c 3d97 dd3d
000001c0: f92b b4bc 8c38 e7bb 7d15 e6bd ffa0 c7bd
000001d0: 203f 4dbe 9038 8d3d fe33 dc3d c7ff 633d
000001e0: a615 c83c 2975 473a 9093 c83c c706 dd3b
000001f0: 41c7 1bbc a376 ac3d dc15 79bd 8f9f 883d
00000200: f3b3 013e 942f c73c c3a4 f93c c98d f5bc
00000210: 9fef 99bd 1ca4 ddbd 00e3 ed3d 4f38 423e
00000220: 2473 393d 38c3 843c 97d9 773d 472f 83bd
00000230: 44ec 54bd 5e63 043e 23d0 0a3d 1ff4 b9bd
00000240: 96f1 92bd 5628 9dbc 4833 a2bc 5b43 55bc
00000250: 8677 18bd e86a 9bbb cfdc d63d ae74 83bc
00000260: 2a2b 16bd dbc3 ca3d 8153 4bbd 0ca1 84bb
00000270: b8d1 94bc 13b2 c3ba 83db 85bd 72d7 ebbd
00000280: d7c0 9cbd 6362 f43a 7b91 30be dbd4 273d
00000290: c6ae 9d3c 17ff 47bd d878 8b3d dc2d d03d
000002a0: 3c3e ad3d 57a2 153e ecec 8b3d da81 ab3d
000002b0: 4103 efbd 2049 c6bd 58f9 ddbb cbb5 21bd
000002c0: f698 e5bc 0ce8 66bd 9b52 b83c d656 bebd
000002d0: 4f14 333b e092 cabc 306c 4738 dd96 80bd
000002e0: 2ff3 12be 657e 05be a676 cfbd 4cdd c7bd
000002f0: 4283 4ebd c97d bcbd 4c8d ae3d b365 093e
00000300: 336e 843d d8ac 0e3d d25c a43d 1f2e 6f3d
00000310: 4a6d 00bd be7a e6bb ec2f 07be dd11 3e3d
00000320: 7e9e 613e 043c 13be dddb 9d3c 9c07 ac3d
00000330: 0afb 4b3c 407d d63d 2c85 513b 4820 ae3c
00000340: 948b 543b 30f1 963c f625 643d 7cb9 13be
00000350: 1a39 b0bd cdd2 50bd 0ebd a7bc 3ad2 d1bd
00000360: 26f9 d7bb 1597 25be f637 44be c02a 2ebe
00000370: 85b5 88be 4728 ae3c 9433 ba3d cc86 cc3d
00000380: 0936 da3d b287 813c 30a0 84bc dbef 1ebd
00000390: 8371 8ebd 60e7 7abd a8db 773c cc2e 0dbe
000003a0: d0a8 f1bd f77b 083d 8a86 a9b9 263f c5bd
000003b0: 992f 833c 6d8a 873e 6039 c93d 5c3c 8d3d
000003c0: 4a1e 0f3e 1175 febd 1689 2dbe 7130 3b3e
000003d0: 7415 0d3d 437d 73be 2201 0abe d94c 36be
000003e0: 6421 5cbe c4b7 243e 5b02 a93c 44d4 8b3d
000003f0: 4ce8 c6bd c300 29bd 466b 99bd 87b7 4f3e

conv2.bias f4 [32]
0.02402016 0.07515409 0.07690306 0.09879615 -0.00029763122 0.025140764 0.037216604 0.010623022
-0.00382958 -0.07574088 0.034135714 -0.014649528 -0.041109376 -0.0638455 -0.006533527 0.081475325
-0.0152062755 -0.08544859 -0.03705508 0.1307188 0.027987486 -0.06809567 -0.119458854 0.023644164
0.00017561592 -0.022479754 -0.042505797 -0.006860963 0.047059607 0.015526339 0.0813675 -0.027657906
00000000: edc5 c43c 63ea 993d 5a7f 9d3d a355 ca3d
00000010: 630b 9cb9 01f4 cd3c 7070 183d 2f0c 2e3c
00000020: b1f9 7abb 091e 9bbd e4d1 0b3d 9304 70bc
00000030: 4e62 28bd 6ec1 82bd 3217 d6bb 89dc a63d
00000040: be23 79bc acff aebd 11c7 17bd 26db 053e
00000050: 0346 e53c be75 8bbd d8a6 f4bd 68b1 c13c
00000060: 8a25 3839 7627 b8bc 8f1a 2ebd eed1 e0bb
00000070: 93c1 403d 3062 7e3c 01a4 a63d d592 e2bc

conv3.weight f4 [64, 32, 3, 3]
-0.0731605 0.06258367 0.13949879 -0.015059913 0.06549001 0.07222292 0.06749827 0.056462392
-0.013339354 -0.027179735 0.055237196 0.05202842 -0.017601905 -0.14757574 -0.010946254 -0.04017118
-0.02219193 0.06943609 0.028015368 -0.04393602 -0.029245557 -0.09532275 0.029925887 -0.074141055
-0.0066886195 -0.082264565 -0.1308116 0.032647923 0.11416783 0.004168204 -0.019839099 -0.041968334
-0.041706204 -0.12805489 -0.18265204 -0.0740013 -0.03774282 0.048849665 0.088451914 -0.002597166
0.18115658 -0.02761548 -0.021334305 0.027921913 -0.009287579 -0.00047967973 -0.04153113 -0.0036453265
-0.08528555 -0.110918745 -0.17407998 -0.06558299 -0.11050161 -0.11459851 -0.09310056 -0.0057869204
0.016103446 -0.058352362 -0.076300524 -0.012535194 -0.0067320503 0.06014628 0.10051199 0.025334397
-0.075600535 0.03495308 -0.1253014 -0.064571224 -0.01041514 -0.077950224 -0.16347854 0.0403646
0.080955364 0.10607424 -0.07643088 -0.08510695 -0.24313289 -0.12932368 -0.040328857 -0.09465138
0.038497534 -0.09039041 -0.08094166 0.04748921 0.046780806 0.15703653 0.120689236 0.028212428
-0.010194081 0.038157817 0.07824412 -0.078970045 -0.10537599 0.11315441 0.046277493 -0.025806047
-0.028580869 -0.042756256 -0.059054945 0.12040664 0.10626487 -0.06364626 -0.07828748 -0.000934063
0.025941627 -0.032684766 -0.115295164 -0.10882174 -0.12954415 0.03418738 0.0357185 0.015452151
0.118063085 0.102678835 0.02553318 -0.07357516 -0.038256817 -0.005454301 -0.02835124 0.12571076
0.06633899 0.0543607 0.051035136 -0.0870692 0.014832148 0.012374403 -0.0061904164 0.038118944
0.20742688 0.025021745 0.028798902 0.08284686 0.032601874 -0.0069824383 0.04094818 0.030267866
0.01596514 -0.042454008 0.03141477 0.1248255 -0.11901958 -0.026310528 0.06598637 -0.0686111
0.100136526 0.03221383 -0.055892244 0.003870346 -0.08351712 -0.07984325 -0.07495576 -0.0764275
-0.035937276 -0.023721019 -0.0076382337 2.1370506e-05 0.030442392 0.053983293 -0.118066765 0.07595326
0.14177944 0.1126858 -0.002074681 -0.0038974637 0.190687 0.03193942 0.08703753 0.074721485
-0.00834119 -0.1045632 0.005617225 -0.06948107 -0.081944145 0.04168305 -0.011623371 -0.016036443
-0.11895373 0.0073860264 0.0907279 0.113032036 -0.056371007 0.09101662 0.037821062 -0.22230762
-0.21029325 0.019257274 -0.11381773 0.013695037 0.021308543 -0.00636404 0.099477805 0.053878777
-0.17793584 -0.13733873 0.041642033 -0.07239197 0.008946657 0.009482136 -0.04523613 0.057813946
0.052755054 0.08755617 0.12705818 0.09095499 0.00018153287 -0.0049804896 -0.051785465 -0.022638483
0.02314536 0.074490786 -0.02339798 0.010578457 0.021997867 -0.015101104 -0.0019735459 -0.01352194
-0.050772533 0.08757973 0.1208628 -0.033623982 -0.064494506 -0.07353267 -0.0311775 -0.031844996
-0.035103932 0.07785842 0.015958648 -0.077867486 0.027170487 0.09354086 -0.015442271 0.098357074
-0.035888392 0.054308284 0.07407211 0.026566848 0.010373329 0.07927527 -0.0005104339 -0.03537562
-0.10780034 -0.114556454 -0.030626444 -0.08229738 0.07680732 0.17142786 -0.014540722 0.093975835
0.0151252495 0.036630176 0.06979569 -0.012136382 0.04024558 0.09831967 0.09169117 0.00878669
00000000: 2cd5 95bd de2b 803d c5d8 0e3e dabd 76bc
00000010: a01f 863d 9ce9 933d 883c 8a3d 1c45 673d
00000020: 4e8d 5abc 09a8 debc 6640 623d c11b 553d
00000030: df31 90bc 181e 17be eb57 33bc 898a 24bd
00000040: dacb b5bc 8234 8e3d 7c80 e53c 42f6 33bd
00000050: 6194 efbc 9338 c3bd 2227 f53c 44d7 97bd
00000060: 352c dbbb 537a a8bd 7af3 05be d4b9 053d
00000070: d3d0 e93d 6e95 883b 9b85 a2bc fde6 2bbd
00000080: 20d4 2abd d220 03be 2309 3bbe fe8d 97bd
00000090: 3798 1abd 9616 483d 4726 b53d 3735 2abb
000000a0: 1c81 393e dc39 e2bc 48c5 aebc 7fbc e43c
000000b0: ee2a 18bc 867d fbb9 8c1c 2abd 6ee6 6ebb
000000c0: 31aa aebd 5e29 e3bd 0642 32be 6050 86bd
000000d0: ab4e e2bd a0b2 eabd 82ab bebd 35a0 bdbb
000000e0: 60eb 833c e302 6fbd 7343 9cbd 6a60 4dbc
000000f0: 8898 dcbb f25b 763d 3bd9 cd3d 158a cf3c
00000100: 74d4 9abd f62a 0f3d 034f 00be eb3d 84bd
00000110: 43a4 2abc 5ea4 9fbd eb66 27be 5a55 253d
00000120: edcb a53d 733d d93d cb87 9cbd 8d4c aebd
00000130: d4f7 78be 6d6d 04be df2f 25bd 95d8 c1bd
00000140: 97af 1d3d 9b1e b9bd bec4 a5bd 0c84 423d
00000150: 3b9d 3f3d 2fce 203e eb2b f73d c01d e73c
00000160: 1305 27bc 5f4b 1c3d 743e a03d 0cbb a1bd
00000170: 5ecf d7bd 80bd e73d 788d 3d3d 3467 d3bc
00000180: 6d22 eabc 2f21 2fbd 99e3 71bd c297 f63d
00000190: 65a1 d93d f858 82bd 3055 a0bd e8db 74ba
000001a0: 8983 d43c 76e0 05bd df1f ecbd efdd debd
000001b0: 39a7 04be 1108 0c3d 904d 123d 052b 7d3c
000001c0: 0fcb f13d 4849 d23d f62a d13c 93ae 96bd
000001d0: 2eb3 1cbd feb9 b2bb dc40 e8bc 52ba 003e
000001e0: bddc 873d 53a9 5e3d 380a 513d 5651 b2bd
000001f0: 8a02 733c 02be 4a3c fad8 cabb 9c22 1c3d
00000200: b667 543e 67fa cc3c adeb eb3c 9dab a93d
00000210: 8b89 053d f0cc e4bb 47b9 273d 51f4 f73c
00000220: 53c9 823c 41e4 2dbd c6ac 003d 83a4 ff3d
00000230: 8ac0 f3bd 2d89 d7bc dd23 873d fa83 8cbd
00000240: 6114 cd3d a6f2 033d 44ef 64bd a1a5 7d3b
00000250: 060b abbd dc84 a3bd 6882 99bd 0586 9cbd
00000260: f732 13bd 9552 c2bc 264a fabb d044 b337
00000270: 5362 f93c 961d 5d3d fdcc f1bd 628d 9b3d
00000280: a12e 113e d0c7 e63d 5ff7 07bb 976c 7fbb
00000290: 7443 433e e9d2 023d bc40 b23d 9407 993d
000002a0: 7da9 08bc 3b25 d6bd b310 b83b 174c 8ebd
000002b0: 55d2 a7bd d9bb 2a3d f46f 3ebc dc5e 83bc
000002c0: 039e f3bd 7b06 f23b 8dcf b93d 577d e73d
000002d0: 49e5 66bd ec66 ba3d 42ea 1a3d 9ca4 63be
000002e0: 1d57 57be 6ec1 9d3c 4519 e9bd 2661 603c
000002f0: 418f ae3c 7089 d0bb 05bb cb3d feaf 5c3d
00000300: d034 36be 86a2 0cbe d690 2a3d 3e42 94bd
00000310: 0095 123c f65a 1b3c 8549 39bd 51ce 6c3d
00000320: af15 583d a650 b33d 8a1b 023e 9c46 ba3d
00000330: dc59 3e39 6033 a3bb ff1c 54bd 5774 b9bc
00000340: 579b bd3c a08e 983d 1fad bfbc 4451 2d3c
00000350: df34 b43c 9f6a 77bc 9b56 01bb 218b 5dbc
00000360: dcf6 4fbd 005d b33d ea86 f73d 4db9 09bd
00000370: b215 84bd 4c98 96bd f567 ffbc e66f 02bd
00000380: 24c9 0fbd 3c74 9f3d b6bb 823c fd78 9fbd
00000390: a494 de3c 5a92 bf3d 9401 7dbc 6f6f c93d
000003a0: b5ff 12bd 5d72 5e3d 1eb3 973d b8a2 d93c
000003b0: e5f4 293c 135b a23d a4ce 05ba 07e6 10bd
000003c0: 6dc6 dcbd 939c eabd 4fe4 fabc 878b a8bd
000003d0: 284d 9d3d c98a 2f3e 353c 6ebc 6776 c03d
000003e0: e5cf 773c 8609 163d 0bf1 8e3d add7 46bc
000003f0: 8dd8 243d d35b c93d 95c8 bb3d 0df6 0f3c

conv3.bias f4 [64]
-0.11930099 -0.059145473 -0.053326406 0.017631494 -0.08962327 -0.036761474 -0.020673145 -0.061479524
-0.0048144967 0.019872092 -0.07023728 0.0012061147 0.05183188 -0.044158585 -0.018772816 0.0024507768
-0.00050851796 -0.04932354 0.013056298 -0.06451385 -0.004988728 -0.0916936 -0.02209203 0.00013888077
0.029403351 0.023228772 -0.016647667 0.025046494 -0.049159843 -0.068036705 -0.05356768 -0.117571265
-0.0083357785 -0.06722069 -0.02751529 -0.046783756 -0.080506295 -0.09485918 -0.027464198 -0.059821106
0.04707233 -0.031150403 -0.06985822 -0.088514425 -0.01075935 -0.069325395 0.02159601 -0.074445695
-0.012639253 0.025529562 -0.012688826 0.033755913 -0.045908567 -0.014637098 0.027499171 -0.0069351657
0.06504558 0.023384066 -0.026395995 0.02171018 -0.067936756 -0.050908238 -0.075450435 0.031483244
00000000: 1454 f4bd 8642 72bd ca6c 5abd ec6f 903c
00000010: 688c b7bd 3393 16bd ba5a a9bc f4d1 7bbd
00000020: edc2 9dbb ccca a23c 90d8 8fbd 7e16 9e3a
00000030: aa4d 543d a2df 34bd 73c9 99bc 369d 203b
00000040: 104e 05ba 7b07 4abd 15ea 553c d61f 84bd
00000050: 7c78 a3bb dbc9 bbbd 58fa b4bc 86a0 1139
00000060: 4cdf f03c 444a be3c b060 88bc 4e2e cd3c
00000070: d55b 49bd d456 8bbd c969 5bbd 34c9 f0bd
00000080: ca92 08bc 00ab 89bd bf67 e1bc 53a0 3fbd
00000090: 7ce0 a4bd 8845 c2bd 99fc e0bc fa06 75bd
000000a0: eace 403d 212f ffbc d411 8fbd 0d47 b5bd
000000b0: fc47 30bc 79fa 8dbd 1eea b03c fc76 98bd
000000c0: df14 4fbc 5f23 d13c cbe4 4fbc a443 0a3d
000000d0: 9f0a 3cbd 70d0 6fbc f145 e13c 6340 e3bb
000000e0: 9e36 853d f18f bf3c 6a3c d8bc 8cd9 b13c
000000f0: 6d22 8bbd 2885 50bd c285 9abd 93f4 003d

fc1.weight f4 [128, 576]
-0.010608602 -0.019127537 -0.023196742 -0.17414661 -0.20315287 -0.048438337 -0.18436755 -0.16430596
-0.10243315 -0.037584845 0.008608078 -0.018437283 -0.02377782 -0.0034853155 -0.0028868013 0.053215936
0.18145047 0.015481354 0.041617457 0.0052877655 0.06564185 -0.039350107 0.053406734 0.058630046
-0.023577224 0.055809814 0.014633157 0.00091787276 -0.15231994 -0.15257047 -0.08650767 0.052870248
-0.046047993 -0.07626801 0.022510419 -0.012966157 0.029848931 0.043630622 0.14377451 -0.0988006
-0.16895628 0.03828145 0.015310636 -0.21677513 -0.064826965 0.023064034 0.06916719 0.005455937
-0.0428895 -0.045881364 0.04220753 -0.048902247 -0.07585495 0.036562096 -0.12549198 0.034912635
-0.018340131 -0.14503181 -0.1274303 -0.07573647 -0.108824074 -0.12365881 -0.038062703 0.11485247
0.10063902 0.021614011 -0.12232917 0.122029446 -0.0838956 -0.10220623 -0.07027185 -0.18932426
-0.124971375 0.024962252 0.070262566 -0.00088473083 0.06784071 0.03093914 -0.1363016 -0.08994515
0.055019643 0.0042548026 0.019170227 -0.006206496 -0.123676166 0.06374546 -0.09443013 -0.14825974
-0.092220664 -0.17458646 0.28142273 0.12880069 0.052723404 0.05612368 -0.06029384 -0.026797032
0.05431945 -0.07386395 -0.09427911 -0.06679092 -0.035193168 0.067762524 -0.070463754 0.06859512
-0.019278899 -0.0368861 0.11826469 0.1730952 -0.0035243207 0.06577073 0.059311263 -0.041415405
0.11771181 0.056351468 0.05141867 0.051354025 0.06576469 0.0055268495 -0.14350498 -0.035571657
-0.048505668 -0.086034276 0.0025980459 -0.0699176 -0.02599642 0.0029573462 -0.034185067 -0.031649657
0.019844972 -0.036798947 -0.18132824 -0.18581255 -0.01485033 -0.11267378 -0.10761562 -0.013800645
-0.08894791 -0.047843054 -0.07159557 -0.024783276 0.016169563 -0.07085614 -0.05140503 0.030266972
0.02336689 -0.056289025 -0.019932713 -0.005766457 -0.09667765 -0.013241399 -0.046289127 -0.11739587
-0.08763157 -0.106016204 -0.12459117 0.08866112 -0.11339474 0.033326592 -0.11121751 0.06939818
-0.12501824 -0.043604184 0.011794509 0.08077497 -0.021936595 0.0636598 0.1103358 -0.07075559
0.0076972786 0.06099274 -0.16362676 0.027937708 0.02948318 0.011500593 -0.038350902 0.005816532
-0.14280146 -0.02337737 0.033498216 -0.050776783 -0.0930259 -0.040281776 -0.01743046 -0.10084399
-0.03459372 0.036070194 -0.084348015 -0.1033739 0.079077005 0.027427396 -0.0053531234 0.09770809
-0.091971315 -0.18234159 0.10674278 -0.010612554 -0.14586484 -0.1688732 0.08340482 -0.061369866
-0.03193087 -0.06656282 -0.11456284 0.048562363 -0.07797072 -0.066735275 0.0028248641 0.024796428
-0.0824198 0.09523505 -0.07168183 0.0032250762 -0.07707981 0.051389482 0.07090654 -0.119035915
-0.13205452 -0.19071336 0.16951753 -0.12259163 -0.1866123 -0.014575547 -0.024698647 -0.08302842
-0.054017294 -0.025427056 0.079706736 -0.048002344 -0.060817182 0.1280542 -0.025819862 0.05647591
0.08269348 0.06754329 0.04928004 0.15055268 -0.031005258 -0.07408207 0.15796563 0.026323235
-0.08011477 0.0066461703 -0.06038225 0.070318505 -0.019234441 -0.02499451 -0.025460633 -0.08590778
0.05926518 -0.15160853 -0.1771306 0.031113477 0.015431646 0.15712759 -0.086868666 0.0011417957
00000000: b4cf 2dbc 5ab1 9cbc 1807 bebc 7d53 32be
00000010: 4e07 50be 4767 46bd d9ca 3cbe d23f 28be
00000020: 79c8 d1bd 91f2 19bd e508 0d3c c909 97bc
00000030: b4c9 c2bc e469 64bb 7d30 3dbb f4f8 593d
00000040: 27ce 393e 81a5 7d3c 1177 2a3d fe44 ad3b
00000050: 3c6f 863d 942d 21bd 05c1 5a3d 0f26 703d
00000060: 0625 c1bc d598 643d e9bf 6f3c 669d 703a
00000070: c2f9 1bbe 6f3b 1cbe ef2a b1bd 798e 583d
00000080: d29c 3cbd 6732 9cbd c567 b83c 0170 54bc
00000090: bf85 f43c 06b6 323d a039 133e f857 cabd
000000a0: e002 2dbe 02cd 1c3d 76d9 7a3c 4dfa 5dbe
000000b0: 00c4 84bd c9f0 bc3c 87a7 8d3d b7c7 b23b
000000c0: e6ac 2fbd 19ee 3bbd cee1 2c3d b94d 48bd
000000d0: d759 9bbd 23c2 153d f880 00be 8d00 0f3d
000000e0: 0b3e 96bc 3883 14be 177d 02be b91b 9bbd
000000f0: 28df debd d540 fdbd a3e7 1bbd c637 eb3d
00000100: d51b ce3d de0f b13c b787 fabd 93ea f93d
00000110: 75d1 abbd 8051 d1bd b0ea 8fbd 38de 41be
00000120: fef0 ffbd a37d cc3c d2e5 8f3d 48ed 67ba
00000130: 12f0 8a3d 1474 fd3c a692 0bbe 2a35 b8bd
00000140: 475c 613d df6b 8b3b e10a 9d3c dd5f cbbb
00000150: ee49 fdbd fb8c 823d 9664 c1bd 67d1 17be
00000160: 30de bcbd cbc6 32be a416 903e 54e4 033e
00000170: 7ff4 573d f2e1 653d acf6 76bd 7385 dbbc
00000180: 127e 5e3d fc45 97bd 6815 c1bd aec9 88bd
00000190: b626 10bd 14c7 8a3d 4d4f 90bd 997b 8c3d
000001a0: c8ee 9dbc e115 17bd c234 f23d de3f 313e
000001b0: 4af8 66bb ceb2 863d 5ef0 723d 33a3 29bd
000001c0: e412 f13d ccd0 663d 629c 523d 9958 523d
000001d0: a3af 863d 931a b53b f8f2 12be 96b3 11bd
000001e0: e1ad 46bd bd32 b0bd fa43 2a3b f530 8fbd
000001f0: 72f6 d4bc 09d0 413b a405 0cbd 12a3 01bd
00000200: ec91 a23c 7eba 16bd 1cae 39be a545 3ebe
00000210: cc4e 73bc 83c1 e6bd 9465 dcbd 1a1c 62bc
00000220: 522a b6bd 14f7 43bd b3a0 92bd 4c06 cbbc
00000230: 0876 843c 061d 91bd 158e 52bd 71f2 f73c
00000240: ec6b bf3c 528f 66bd ee49 a3bc 8cf4 bcbb
00000250: effe c5bd 74f2 58bc ab99 3dbd 3f6d f0bd
00000260: 2e78 b3bd 061f d9bd a829 ffbd f693 b53d
00000270: 803b e8bd 7781 083d 02c6 e3bd a220 8e3d
00000280: c804 00be 4d9a 32bd c23d 413c 596d a53d
00000290: 60b4 b3bc 1260 823d bcf7 e13d 4fe8 90bd
000002a0: 7439 fc3b 86d3 793d c68d 27be 9fdd e43c
000002b0: b686 f13c fc6c 3c3c d615 1dbd 9b98 be3b
000002c0: 8c3a 12be e681 bfbc 6d35 093d 51fb 4fbd
000002d0: 5d84 bebd 81fe 24bd 53ca 8ebc 4b87 cebd
000002e0: 25b2 0dbd 57be 133d a7be acbd b2b5 d3bd
000002f0: 20f3 a13d 6baf e03c 4169 afbb 2e1b c83d
00000300: 755b bcbd c1b7 3abe f59b da3d 47e0 2dbc
00000310: 985d 15be 19ed 2cbe 25d0 aa3d f85e 7bbd
00000320: f2c9 02bd 1652 88bd ec9f eabd 54e9 463d
00000330: 1daf 9fbd 81ac 88bd 5b21 393b e121 cb3c
00000340: b6cb a8bd 980a c33d eccd 92bd cd5b 533b
00000350: 05dc 9dbd c77d 523d 7337 913d 1ac9 f3bd
00000360: 4d39 07be 5d4a 43be 0196 2d3e 5211 fbbd
00000370: 4b17 3fbe 46ce 6ebc d154 cabc ce0a aabd
00000380: 3d41 5dbd 674c d0bc 493d a33d 1b9e 44bd
00000390: 701b 79bd a420 033e 2d84 d3bc 4953 673d
000003a0: 335b a93d 2354 8a3d ded9 493d 7b2a 1a3e
000003b0: bdfe fdbc 57b8 97bd bec1 213e d3a3 d73c
000003c0: 3613 a4bd 1ec8 d93b 6153 77bd 2603 903d
000003d0: 8c91 9dbc 49c1 ccbc d192 d0bc 6bf0 afbd
000003e0: 0cc0 723d 443f 1bbe b961 35be b1e1 fe3c
000003f0: 04d5 7c3c 0ee6 203e 33e8 b1bd 4ea8 953a

fc1.bias f4 [128]
0.03066517 0.03876285 -0.019558085 0.02146743 -0.029062785 0.06339514 -0.030109942 -0.00035403416
-0.0030213522 -0.020010209 -0.07787225 0.024327526 -0.022910427 -0.054823413 -0.015888184 0.020162612
-0.07684048 -0.048550725 -0.011696331 0.031929597 -0.0037144558 -0.039294075 0.03181409 -0.024499288
-0.0054072114 -0.049206674 -0.038001545 0.056379147 -0.041807353 -0.009161349 -0.024299245 -0.05065336
0.02897638 -0.020137584 -0.05687751 0.009259337 -0.024670117 -0.03615508 -0.013843988 0.028728217
-0.034367405 0.049741656 0.016277751 -0.0064263246 -0.043154854 -0.042450536 -0.017540993 -0.031712644
0.02212261 -0.036388423 -0.035286464 0.06076805 -0.07386896 0.018123358 -0.020331211 -0.052079137
0.03754099 0.030445322 0.0067108287 0.023387041 0.0005282732 -0.022361265 -0.034676533 -0.016041508
0.010213908 0.0800669 0.045829985 -0.0268922 0.017184567 0.030762019 -0.028079966 0.014617943
0.016785007 -0.042169306 -0.025936421 -0.05272454 0.056328584 0.016755978 -0.03847945 0.005018097
-0.018063137 -0.0030241676 -0.0247277 -0.0054732063 -0.023501033 0.020968294 0.025466587 0.017274035
-0.036084324 -0.052186612 -0.008449598 0.012436732 0.010529534 0.033585746 -0.039597042 0.043030705
-0.025832497 -0.017382555 -0.009025145 -0.0052315304 0.013452107 0.018492233 0.02227166 0.007029231
-0.017737212 -0.044685178 -0.04990162 0.0029850716 -0.050722525 0.063841134 -0.059422538 -0.02946577
0.028928323 0.0007612214 0.04112896 -0.019868027 -0.034008063 -0.020633686 0.025480308 0.015006578
-0.010497672 0.02634591 0.014531029 0.039749175 -0.024938392 -0.0077408836 -0.027029913 0.0069690873
00000000: 8635 fb3c cbc5 1e3d 4738 a0bc 77dc af3c
00000010: 1415 eebc 50d5 813d 20a9 f6bc a99d b9b9
00000020: e101 46bb 73ec a3bc 7c7b 9fbd 854a c73c
00000030: a6ae bbbc 848e 60bd f027 82bc 102c a53c
00000040: 8b5e 9dbd 20dd 46bd f8a1 3fbc 9cc8 023d
00000050: 3a6e 73bb d3f2 20bd 7e4f 023d bbb2 c8bc
00000060: fa2e b1bb f08c 49bd 82a7 1bbd d2ed 663d
00000070: 303e 2bbd 7c19 16bc 360f c7bc e679 4fbd
00000080: e05f ed3c 93f7 a4bc 64f8 68bd 79b4 173c
00000090: fc18 cabc 5917 14bd e5d1 62bc 7057 eb3c
000000a0: d6c4 0cbd e8bd 4b3d eb58 853c eb93 d2bb
000000b0: 25c3 30bd 9de0 2dbd 21b2 8fbc 1ee5 01bd
000000c0: 7a3a b53c 070c 15bd 8a88 10bd ebe7 783d
000000d0: 9c48 97bd 7077 943c a48d a6bc ef50 55bd
000000e0: 95c4 193d 7868 f93c 83e6 db3b 2e96 bf3c
000000f0: d07b 0a3a f92e b7bc fb08 0ebd 7b69 83bc
00000100: 3c58 273c 1dfa a33d 39b8 3b3d 084d dcbc
00000110: a6c6 8c3c a100 fc3c f507 e6bc 1980 6f3c
00000120: b680 893c b9b9 2cbd 9e78 d4bc b0f5 57bd
00000130: cdb8 663d d543 893c a19c 1dbd d96e a43b
00000140: 25f9 93bc 1d31 46bb bf91 cabc 9558 b3bb
00000150: 3d85 c0bc b3c5 ab3c 4e9f d03c 4782 8d3c
00000160: 28cd 13bd a1c1 55bd 2f70 0abc 6fc3 4b3c
00000170: 1184 2c3c 3591 093d 8230 22bd f740 303d
00000180: ac9e d3bc dc65 8ebc 34de 13bc 426d abbb
00000190: 3a66 5c3c 067d 973c 0e73 b63c 7755 e63b
000001a0: a14d 91bc ce07 37bd a465 4cbd 31a1 433b
000001b0: 6cc2 4fbd 24bf 823d 0c65 73bd 3362 f1bc
000001c0: 17fb ec3c b48c 473a d776 283d 46c2 a2bc
000001d0: 0a4c 0bbd fa07 a9bc 14bc d03c 26de 753c
000001e0: 6dfe 2bbc 61d3 d73c 8e13 6e3c 08d0 223d
000001f0: 994b ccbc 3da7 fdbb d66d ddbc f15c e43b

fc2.weight f4 [10, 128]
-0.20304874 0.120931156 -0.022420462 0.001000622 0.015093956 -0.11190932 0.06857623 -0.040542576
0.050581474 3.0188336e-05 0.04504895 0.039447747 -0.07169004 0.053875316 0.033460047 -0.29660392
0.08566092 -0.014632073 -0.07873325 -0.0230535 0.053825814 -0.0424891 0.03361018 -0.056878638
-0.04637201 -0.041895878 -0.08040753 0.024669617 0.021706652 -0.11408527 -0.081916444 0.04379338
0.047359444 0.008006271 0.022654328 -0.093637966 -0.057023633 0.097706184 0.0661277 -0.11334316
0.048522696 -0.24547537 -0.08324054 -0.07598556 0.13058807 -0.04250656 -0.053474676 0.050634995
0.06623695 0.051013 -0.0013640404 0.07914779 0.051945902 -0.018801011 0.066659525 0.08734253
-0.119472295 -0.19222888 0.08592229 0.014931173 -0.07368337 -0.07750556 0.047735162 -0.10995173
0.085196674 -0.08202411 -0.060085196 0.05285698 0.046715662 -0.013362676 -0.15866171 -0.07476623
0.058544353 0.05971401 -0.18649681 -0.03720462 -0.030852897 0.018657887 -0.07049103 -0.03957193
0.15365826 -0.032208912 0.06842259 -0.09043115 0.039268743 -0.058334563 0.06140856 -0.0481892
-0.07676797 0.05563242 0.042821217 0.06502452 -0.020738397 -0.13382438 0.088075496 -0.22488256
0.05662857 -0.08460608 -0.13920623 -0.07591999 0.09298803 -0.15438722 0.12979157 -0.042631328
0.04140401 0.04095858 -0.08935343 -0.03277812 -0.066202976 -0.1555686 -0.04826048 -0.020914195
0.025392938 -0.043008503 -0.078260124 0.17251086 -0.118146636 0.08489191 -0.05370267 0.115390055
0.031703804 0.054640632 -0.0966312 0.010042523 0.0077349846 0.038277395 0.06454794 0.07180805
0.21955086 0.09153408 -0.04573042 -0.064725846 0.021819161 -0.08499797 -0.120648175 -0.0649156
-0.010095484 -0.09061138 0.0026275916 -0.0047821174 -0.088001676 -0.15307139 0.067568496 0.09738244
0.01890867 -0.06798685 0.014313206 -0.020058712 0.047117148 0.04790799 0.048843183 0.0021386025
-0.020525236 -0.022653265 -0.06434999 0.042698197 0.038625203 -0.054896396 -0.0130698215 -0.1557684
0.1562698 0.07493604 -0.081241556 -0.059694957 0.025524927 -0.23545276 -0.15503486 0.058770366
0.051772095 -0.045058914 0.07292915 0.07459024 -0.14180465 0.024773717 -0.040593676 0.046089653
-0.035528127 -0.03538039 -0.009787887 -0.03552426 0.037705727 -0.037660737 -0.08297448 0.03610534
0.009229009 -0.004855666 0.013712112 0.1309584 -0.09296423 -0.0421644 0.0721602 0.11292019
0.069695614 -0.03987529 0.10017891 0.0073924265 -0.10845738 0.06003293 -0.06767949 0.019969853
0.049799755 0.005647255 -0.10602301 -0.027554981 0.17376886 -0.0065125586 -0.043886684 0.09087769
-0.10977191 0.008054222 -0.008351159 -0.006204287 -0.10854901 0.035018727 0.035123546 0.052400768
0.0412743 0.049086418 -0.049447257 -0.05859527 -0.076962866 0.06728897 0.06955025 -0.0019592624
-0.16501045 0.072129376 -0.107200205 0.0010022207 0.034677826 -0.07124923 0.08182684 0.12578234
-0.18568805 -0.033069324 -0.10099797 -0.00030589895 -0.008568029 0.11808331 -0.03175914 0.03794575
0.16658477 -0.048748177 0.12503393 -0.037440035 0.064780764 0.06761868 0.022066759 -0.16582187
0.043238536 0.007010817 0.061624914 0.07489807 -0.056830022 -0.07087842 -0.0074216807 -0.01796565
00000000: 02ec 4fbe c1aa f73d 1eab b7bc 4e27 833a
00000010: a44c 773c b730 e5bd b271 8c3d f90f 26bd
00000020: 852e 4f3d f53c fd37 3f85 383d f693 213d
00000030: 3ad2 92bd 5dac 5c3d 670d 093d 78dc 97be
00000040: fe6e af3d 5dbb 6fbc e63e a1bd b2da bcbc
00000050: 7578 5c3d 0d09 2ebd d4aa 093d 93f9 68bd
00000060: 94f0 3dbd 039b 2bbd b4ac a4bd f017 ca3c
00000070: 26d2 b13c 8aa5 e9bd cfc3 a7bd b060 333d
00000080: fafb 413d bc2c 033c 9295 b93c 43c5 bfbd
00000090: 9d91 69bd 2e1a c83d f66d 873d 7520 e8bd
000000a0: bcbf 463d e55d 7bbe 047a aabd 519e 9bbd
000000b0: e1b8 053e 5c1b 2ebd 4308 5bbd a466 4f3d
000000c0: 3da7 873d 02f3 503d 9ac9 b2ba 3d18 a23d
000000d0: 3ac5 543d 9404 9abc ca84 883d a4e0 b23d
000000e0: e4ad f4bd a6d7 44be 07f8 af3d e1a1 743c
000000f0: 4fe7 96bd 3cbb 9ebd f285 433d 5f2e e1bd
00000100: 987b ae3d 42fc a7bd e51b 76bd 9080 583d
00000110: ec58 3f3d 20ef 5abc 3778 22be 0a1f 99bd
00000120: 34cc 6f3d ae96 743d 05f9 3ebe df63 18bd
00000130: 37bf fcbc 6dd8 983c 9a5d 90bd 2d16 22bd
00000140: 9758 1d3e 7eed 03bd 2521 8c3d f733 b9bd
00000150: 43d8 203d 39f0 6ebd 8b87 7b3d 0a62 45bd
00000160: 8738 9dbd d2de 633d 4d65 2f3d 932b 853d
00000170: 92e3 a9bc 4209 09be ed60 b43d 9d47 66be
00000180: 5cf3 673d f445 adbd 148c 0ebe f17b 9bbd
00000190: 8270 be3d af17 1ebe 15e8 043e 309e 2ebd
000001a0: 4097 293d 2fc4 273d eefe b6bd 5a42 06bd
000001b0: 6d95 87bd 604d 1fbe c8ac 45bd 3f54 abbc
000001c0: da04 d03c af29 30bd d846 a0bd b0a6 303e
000001d0: ddf6 f1bd cfdb ad3d 55f7 5bbd 9f51 ec3d
000001e0: d9db 013d dbce 5f3d 94e6 c5bd 6589 243c
000001f0: c175 fd3b c2c8 1c3d b631 843d 1910 933d
00000200: f1d1 603e 3876 bb3d d24f 3bbd fc8e 84bd
00000210: 19be b23c 6a13 aebd 6416 f7bd 78f2 84bd
00000220: 8767 25bc 7692 b9bd ac33 2c3b 4fb3 9cbb
00000230: 393a b4bd bfbe 1cbe 5a61 8a3d 7270 c73d
00000240: 5be6 9a3c b13c 8bbd f081 6a3c 2b52 a4bc
00000250: e9fd 403d 2b3b 443d ca0f 483d cc27 0c3b
00000260: 8a24 a8bc 5793 b9bc edc9 83bd 4ee4 2e3d
00000270: 7635 1e3d 0bdb 60bd ce22 56bc c081 1fbe
00000280: 3105 203e 1178 993d f961 a6bd b382 74bd
00000290: a719 d13c 871a 71be 75c1 1ebe 32b9 703d
000002a0: fa0e 543d b28f 38bd e15b 953d c5c2 983d
000002b0: 3d35 11be 40f2 ca3c 8e45 26bd 81c8 3c3d
000002c0: f185 11bd 07eb 10bd 605d 20bc e381 11bd
000002d0: 5271 1a3d 2542 1abd 86ee a9bd 31e3 133d
000002e0: 4535 173c 471c 9fbb c4a8 603c f519 063e
000002f0: 0864 bebd 94b4 2cbd bac8 933d b342 e73d
00000300: 93bc 8e3d 4654 23bd 9a2a cd3d 2b3c f23b
00000310: e71e debd 17e5 753d 8b9b 8abd d197 a33c
00000320: d4fa 4b3d 9c0c b93b 9822 d9bd fcba e1bc
00000330: 77f0 313e 4d67 d5bb 86c2 33bd 151e ba3d
00000340: 18d0 e0bd dbf5 033c 4dd3 08bc 554d cbbb
00000350: f14e debd cc6f 0f3d b5dd 0f3d 30a2 563d
00000360: 3e0f 293d d70e 493d 3589 4abd 9801 70bd
00000370: b59e 9dbd cdce 893d 5d70 8e3d f866 00bb
00000380: 80f8 28be 91b8 933d c88b dbbd f25c 833a
00000390: 560a 0e3d 1eeb 91bd d594 a73d 16cd 003e
000003a0: 0225 3ebe b373 07bd 06d8 cebd 1061 a0b9
000003b0: eb60 0cbc aad5 f13d df15 02bd 016d 1b3d
000003c0: 3395 2a3e 2bac 47bd e508 003e b95a 19bd
000003d0: c7ab 843d aa7b 8a3d 59c5 b43c 35cd 29be
000003e0: e41a 313d ffba e53b 686a 7c3d 2964 993d
000003f0: 99c6 68bd b428 91bd 9231 f3bb b32c 93bc

fc2.bias f4 [10]
-0.014167301 0.10603392 0.030331938 0.020931518 0.0042719087 -0.045389738 -0.0034039202 0.014831527
0.04044243 -0.07708693
00000000: f81d 68bc 5028 d93d af7a f83c 9378 ab3c
00000010: 5efb 8b3b 97ea 39bd 4e14 5fbb efff 723c
00000020: f6a6 253d c1df 9dbd
